data.pth (torch, 6762 bytes, 6 tensors)

l1.weight f4 [8, 84]
000000 16 c5 8a be 52 d8 5e 3d ec 8a a7 3e 30 03 6b be
       -0.2710349 0.054405518 0.32723176 -0.22950435
000010 51 64 95 be 64 dd 93 be f6 f8 4a be 48 5f 66 3e
       -0.29178098 -0.28879845 -0.19821534 0.22497284
000020 cf 53 f6 be bd 4f 2e 3f 0a fa 36 3d ba 5e 0b 3f
       -0.48110816 0.6809042 0.04467205 0.54441416
000030 2f b3 20 3d 7f ae 88 be a3 ba 29 be 3b 45 bf bd
       0.039233383 -0.2669563 -0.16575103 -0.093393765
000040 e2 09 2e bb 8b 82 e3 3e 54 b0 d1 3e 4c 5d 04 be
       -0.0026556184 0.44435534 0.4095484 -0.12926215
000050 c0 76 4d 3e 41 b5 c2 3e d8 30 77 be 1b f3 21 3f
       0.20064831 0.3802891 -0.24139726 0.63261575
000060 d1 ad 2d be 4e e0 b1 be 7e 2e ab be fa 71 6e 3c
       -0.16960837 -0.34741443 -0.33433908 0.014553541
000070 8f 20 c5 be 8d 04 ca be 5f cd 52 3e 4a 1f 1c 3e
       -0.38501403 -0.39456597 0.20586155 0.15246311
000080 c8 85 d6 3e 7e cb 6e be ff e1 33 3e df 3e 77 3e
       0.41898942 -0.23319814 0.1756668 0.24145077
000090 cc 16 28 3e 1d 0a ea bb 72 13 bd 3e d2 30 14 3d
       0.16414946 -0.007142319 0.36928898 0.03617937
0000a0 86 5a 1c be 7f 26 19 be 28 65 e1 be 2d 44 42 3e
       -0.15268907 -0.14956091 -0.4402249 0.1897132
0000b0 09 ed 22 be 58 9b 4f be d3 a0 6e bd 89 b3 dd bd
       -0.15910734 -0.20274103 -0.058258843 -0.10825259
0000c0 79 7c c6 bd 70 da c1 be 53 56 3e be 9a 0f 2b be
       -0.0969171 -0.37861967 -0.18587618 -0.1670517
0000d0 99 b4 cd 3e a5 1c 30 be 63 b1 5f 3e 4f 87 10 3f
       0.40176848 -0.17198427 0.21845011 0.56456465
0000e0 ab f2 c3 bd 13 7f bc 3e f9 c6 d4 3e 72 87 5c 3f
       -0.095677696 0.368157 0.41558054 0.86144173
0000f0 3f 89 3d be 7a 15 0d 3d 7a 5a 23 bc 02 cf 8c 3e
       -0.18509386 0.03444431 -0.009970302 0.27501684
000100 43 4a 6b be 34 9e 34 be ef 84 a9 be 35 4f 8c 3e
       -0.22977547 -0.17638475 -0.33109233 0.2740418
000110 c3 19 fd 3d 1a 24 bb 3e 2d 35 e8 3d 7a 84 55 be
       0.12358429 0.3655098 0.113382675 -0.20851317
000120 ee ae 35 be 66 8e 1d 3d d3 e9 74 be de 97 90 3e
       -0.17742512 0.03846588 -0.23917322 0.28240865
000130 8e 23 d1 3e 01 12 ca 3d 44 41 97 3e 3e 86 17 be
       0.4084744 0.09866715 0.2954198 -0.14797303
000140 f6 97 9d bd 74 2d c6 3e ff 96 0c 3f a4 b7 d3 3e
       -0.07695 0.38706553 0.549179 0.41351044
000150 a4 df 08 3e 41 ed 24 3f db 0c 1c be 88 58 cb be
       0.13366562 0.6442452 -0.15239279 -0.3971598
000160 94 42 f2 be 2f e7 14 3f 40 d3 3e 3e 8d 5c 42 3d
       -0.4731642 0.5816526 0.18635273 0.047451545
000170 15 08 43 3f 8d 48 ad 3c 2d 82 c9 bc e2 06 4b bf
       0.7618421 0.021152759 -0.024598205 -0.7930738
000180 d4 32 7f be cd f3 8b be 9c f1 96 be 99 bf ad be
       -0.24921733 -0.27334443 -0.29481208 -0.3393524
000190 b7 57 41 3e 13 44 09 3d 41 ca af 3c 1b f9 c7 3e
       0.18881117 0.033512186 0.021458747 0.3905724
0001a0 7f 9c 90 3e 19 c0 fa 3c 73 51 14 3f 1c ea 93 3d
       0.28244397 0.030609177 0.5793678 0.07222387
0001b0 a8 7b b8 be c8 9d 42 3f 98 15 50 3f 84 47 88 3e
       -0.36031842 0.76022005 0.8128295 0.26617062
0001c0 a8 9a 2e 3f bb 31 19 3f 9b 4e 82 be 4f cc dc 3c
       0.68204737 0.5984151 -0.25450596 0.02695289
0001d0 5b df 11 bd 46 8c b0 3d 72 fd e3 3d ef 73 88 3d
       -0.0356134 0.08620505 0.11132325 0.066627376
0001e0 05 b9 92 3e fe e8 25 3e d3 4a 85 3d 31 c2 9a 3e
       0.28656784 0.1620216 0.06508412 0.3022628
0001f0 43 e9 66 be 05 aa c5 3e c9 91 10 3f ae d9 38 bf
       -0.2254992 0.38606277 0.5647245 -0.7220715
000200 c3 55 47 be 40 c2 05 bc 78 46 00 3e 22 49 32 be
       -0.19466309 -0.008163989 0.12526882 -0.1741071
000210 e8 a5 29 3e ed 94 f9 bd d6 89 e3 3d 99 88 59 3e
       0.16567194 -0.121866085 0.111102745 0.21243514
000220 f0 4a eb be 55 46 e7 be e1 43 d9 be f0 b7 4b be
       -0.4595561 -0.45170847 -0.424346 -0.19894385
000230 75 2f 00 3e c8 6a cb be d9 38 8e be c5 21 fa be
       0.12518103 -0.39729905 -0.27777746 -0.4885389
000240 fb f4 67 3d 9b 02 52 3e e1 53 b7 3e 87 8b 9b 3e
       0.056630116 0.20508806 0.35806182 0.30379888
000250 da f5 01 3e b1 a7 bb be 80 f3 e2 bd 92 c8 94 bd
       0.12691441 -0.36651376 -0.110816 -0.07264818
000260 9f 1e a7 bc f8 fd 8b 3e d0 f5 94 be e5 1f 4e 3e
       -0.020400343 0.273422 -0.2909379 0.20129354
000270 7d ce 13 3f 62 a3 e9 3d d4 24 bd be d5 47 58 3c
       0.5773695 0.11408116 -0.3694216 0.01320072
000280 0f b5 40 be fa 68 09 bd 12 00 7c 3d 6e ce 48 be
       -0.18819068 -0.03354738 0.061523505 -0.19609997
000290 6f 4b 78 3e 05 2a db 3c 86 a1 ed 3d 06 93 fc bd
       0.24247526 0.026753435 0.11603074 -0.1233273
0002a0 65 57 20 be c9 60 09 3f 4e 92 80 3e 13 7d c7 be
       -0.15658338 0.5366331 0.25111622 -0.38962612
0002b0 92 a6 f4 3e c0 16 ce be 3e d0 02 be 1c 74 5d be
       0.47783333 -0.40251732 -0.1277475 -0.21626323
0002c0 99 dc c4 3c c3 46 17 3f 74 c2 9e be 4a c3 42 3f
       0.02403097 0.5909235 -0.3100773 0.7607924
0002d0 09 74 9e be e0 a2 85 3e c1 ea 6f 3e 29 3f b7 be
       -0.30947903 0.26100826 0.23429395 -0.35790375
0002e0 13 95 2c bc 65 1f 9b 3e 1a 49 7e bc f9 05 73 be
       -0.010533589 0.3029739 -0.015520358 -0.23732747
0002f0 31 08 c3 3e da 66 97 3e 37 a4 97 be 7a 17 2c 3f
       0.38092187 0.29570657 -0.29617473 0.6722332
000300 57 aa 9c 3e 75 41 07 bf 81 08 ed be 2a 70 e2 3e
       0.3059871 -0.52834255 -0.4629555 0.442262
000310 4d 3b 0d bf 20 cf 08 bf 79 70 55 3e 91 df 55 3e
       -0.5516861 -0.5344105 0.20843686 0.20886065
000320 a3 41 57 3d c6 53 8a be 27 de 76 3e f7 0d 10 3d
       0.05255283 -0.2701704 0.24108182 0.035169568
000330 4a 35 04 3f 7a 06 b0 be c2 f2 94 3d c6 f6 62 bd
       0.5164381 -0.3437994 0.07272865 -0.055411123
000340 a8 6e 55 be 4d d8 70 be ad 44 67 bd 9e 18 1c 3f
       -0.20842993 -0.23520012 -0.05646198 0.6097506
000350 64 02 d1 3e be bc 81 bd ef b4 80 3e 74 92 98 3e
       0.40822136 -0.06334828 0.2513804 0.29799235
000360 9c 06 0d be 6c 1e 7e 3e 0d 71 84 3d c9 29 56 be
       -0.13772053 0.24816293 0.06466875 -0.20914377
000370 28 4b d9 bd e7 b3 e2 be ca 70 6f be f6 c7 cb bd
       -0.10610038 -0.4427788 -0.2338287 -0.09950249
000380 6e d8 de bd 95 3f 4d 3e 41 93 3b 3e c6 5b ac 3e
       -0.108811244 0.20043786 0.18317892 0.33663768
000390 d5 26 99 3e a1 bd c1 bd 86 f0 9e 3e 83 f5 08 3f
       0.2991244 -0.09459997 0.3104288 0.5349962
0003a0 75 63 90 3d 8a 8d 0c 3e 1f e9 9c 3e 94 5f ea 3d
       0.0705022 0.13725868 0.30646607 0.11444011
0003b0 4b 78 66 3e 43 db 3f 3f 93 73 8c 3d e8 28 3c be
       0.22506826 0.7494394 0.068579815 -0.1837498
0003c0 cc 9b 9f be 7c 4e f2 3e c7 8d e1 3e 30 2d bf 3e
       -0.3117355 0.47325504 0.4405348 0.37339163
0003d0 20 01 98 bb 88 f6 c8 3e d6 d8 c9 bd 4e 48 b0 3e
       -0.004638806 0.39250588 -0.09855811 0.34430164
0003e0 bc d6 0a be f9 0a 74 3e 3c a8 fa 3e 3b 71 b4 3e
       -0.13558477 0.2383231 0.48956478 0.35242638
0003f0 1b 42 6c 3d c1 14 e1 3e 20 0d 86 be e8 d7 8a be
       0.05768023 0.43961146 -0.2618189 -0.27117848

l1.bias f4 [8]
000000 15 9d d0 3e f1 1b 56 3f 39 39 0d 3f 7c 17 2c 3f
       0.40744844 0.83636385 0.5516544 0.67223334
000010 eb c3 36 3f b2 ef f3 3e ed de 53 3f 6c b1 ed 3e
       0.713927 0.4764381 0.8276203 0.46424425

l2.weight f4 [8, 8]
000000 be 4e a7 be 5c 10 ff 3e be 5b 83 bf 20 2b 24 3d
       -0.32677263 0.4981717 -1.0262372 0.04008019
000010 9d 25 96 3f c8 0c 68 3e a9 57 92 3f ad 1d 36 bf
       1.1730229 0.22661126 1.1433002 -0.7113903
000020 0e 73 f4 3e 11 e1 bc 3f 3b 7b 42 3f 22 71 19 3f
       0.4774403 1.4756185 0.75969285 0.5993825
000030 a4 72 2f bf 44 90 8e bc aa a3 f3 3d e9 05 b5 3e
       -0.685343 -0.017402776 0.11896451 0.35356072
000040 f7 1d 31 3f a8 e5 a1 be bb ee 46 be 18 be 08 bf
       0.6918635 -0.31620526 -0.19427006 -0.5341506
000050 9e 27 0a 3f 33 63 ad 3f 0f a9 a0 3e d6 75 f0 3e
       0.539667 1.3545898 0.3137898 0.46964902
000060 db 64 53 bf 45 7f 0d 3e 2d 10 32 3e db c1 54 3f
       -0.8257577 0.1381808 0.17388983 0.831083
000070 d5 f1 f5 3e 4c 3a 92 3f ed f2 4c bf b1 8b c4 3e
       0.48036066 1.1424041 -0.80058175 0.38387826
000080 2f 58 2a 3e 50 2f 58 3f 87 d8 71 be 40 04 74 3f
       0.16635202 0.84447193 -0.23617755 0.95318985
000090 de bb 7f 3f 6d 56 d8 3e 54 15 80 bf b7 db 76 bf
       0.9989604 0.42253438 -1.0006509 -0.9642901
0000a0 b3 83 8d 3f 6a 31 24 bf f6 90 38 3f 23 48 6c 3f
       1.1055816 -0.641379 0.7209619 0.9229757
0000b0 f3 0f 8c 3f af 7d 80 bf d3 33 09 bf c4 0e cf 3e
       1.0942367 -1.0038356 -0.535947 0.40440953
0000c0 41 98 9d 3f 63 dd 65 bf 17 42 9e 3f 6d 0a 50 3e
       1.2312089 -0.89790934 1.2363919 0.20316477
0000d0 f7 16 98 bd ce ba 23 3f f0 81 e8 3e 55 dd 00 3f
       -0.07426255 0.63956916 0.45411634 0.50337726
0000e0 e7 ac 33 bf 40 d1 73 3f ea c7 f2 bd cc 8c 3f 3f
       -0.70185703 0.95241165 -0.11854537 0.74824214
0000f0 55 54 c2 3e 5b b9 d0 bd 53 aa ac 3f 6c be ae 3f
       0.37954965 -0.10191604 1.3489479 1.3651862

l2.bias f4 [8]
000000 01 5c 0b 3f 95 76 4a 3f 0b 51 96 be 5d aa 87 be
       0.5443726 0.7908719 -0.29358706 -0.26497164
000010 96 c3 43 3c 8f 4a b5 3e ed 1f ce 3e bb c4 83 3e
       0.011948487 0.35408446 0.40258732 0.2573603

l3.weight f4 [8, 8]
000000 b8 df 8b bf a3 4a 6f 3e e9 b2 11 3e de 1b ab 3d
       -1.0927649 0.23368315 0.14228405 0.083549246
000010 de 13 dd bc 3e d5 91 bf f2 3c 20 bf c5 f6 df 3e
       -0.026987012 -1.1393201 -0.62592995 0.43742958
000020 53 c1 23 bf fb 35 fc bc 95 97 89 3e c2 91 f5 3d
       -0.63966864 -0.030787459 0.2687346 0.11990692
000030 38 49 3c bf 4c 84 71 bf da 49 2f 3f 40 68 ab bf
       -0.7354922 -0.94342494 0.68472064 -1.339119
000040 3a 70 84 bf 87 10 2a 3f 56 47 88 bf be 0e c4 bf
       -1.0346749 0.6643147 -1.064677 -1.5316999
000050 be 13 7c bf 3b ee d0 3e 0f 0e 3e 3e b4 a6 a7 3e
       -0.98467624 0.40806755 0.1856005 0.32744372
000060 08 fd 7c 3f d6 d9 53 3e 87 ec 4d bf da 00 c3 bf
       0.98823595 0.20688567 -0.8043904 -1.5234635
000070 44 b9 0d bd 05 35 3b bf dd 49 bc bf a0 35 57 3f
       -0.03460051 -0.73127776 -1.4710041 0.840662
000080 9c 86 19 3f 6e 10 82 be 9d 2b d0 3d 38 b5 a1 3e
       0.5997102 -0.2540316 0.101645686 0.3158357
000090 cf 86 3d 3f b1 b6 24 bf f0 2f 83 bf 11 bd 0f bf
       0.74033827 -0.64341265 -1.0249004 -0.5614787
0000a0 71 d0 f7 3e 61 9c 7a bf 94 02 2d 3f 00 e2 e4 be
       0.48401216 -0.97894865 0.6758206 -0.44703674
0000b0 87 c5 68 bf 33 a8 9a be fa ba 73 be b1 a8 c4 3e
       -0.909264 -0.3020645 -0.23801795 0.3840995
0000c0 be 45 d5 be 2d 13 8a be 74 68 1f 3e cf e0 9a bf
       -0.41654772 -0.26967755 0.1556719 -1.2099856
0000d0 8d 27 b2 3e 15 b3 3f 3f 40 6c 81 3e 7c 1b b1 bf
       0.347958 0.7488263 0.252779 -1.3836513
0000e0 03 23 0d bf ab 88 34 bf 23 59 92 bf aa 62 d9 3e
       -0.5513155 -0.7052104 -1.1433452 0.42458087
0000f0 c1 9b b9 3d e9 ad 0d 3f 49 b9 85 be 3e b8 3d 3e
       0.09062911 0.5534349 -0.26117924 0.18527314

l3.bias f4 [8]
000000 28 3b 61 3d 93 3e e0 3e 95 26 6a 3d 50 3a 05 3f
       0.054988056 0.4379774 0.0571657 0.520421
000010 53 7b e0 bd 4b 00 29 be 34 1e 14 be 05 f8 a1 be
       -0.10961022 -0.16504018 -0.14464647 -0.31634536
